__________________________________________________________________________________________________
Layer (type)                    Output Shape         Param #     Connected to
==================================================================================================
frames (InputLayer)             (None, 84, 84, 4)    0
__________________________________________________________________________________________________
normalization (Lambda)          (None, 84, 84, 4)    0           frames[0][0]
__________________________________________________________________________________________________
conv2d_1 (Conv2D)               (None, 20, 20, 16)   4112        normalization[0][0]
__________________________________________________________________________________________________
conv2d_2 (Conv2D)               (None, 9, 9, 32)     8224        conv2d_1[0][0]
__________________________________________________________________________________________________
flatten_1 (Flatten)             (None, 2592)         0           conv2d_2[0][0]
__________________________________________________________________________________________________
dense_1 (Dense)                 (None, 256)          663808      flatten_1[0][0]
__________________________________________________________________________________________________
dense_2 (Dense)                 (None, 3)            771         dense_1[0][0]
__________________________________________________________________________________________________
action_mask (InputLayer)        (None, 3)            0
__________________________________________________________________________________________________
QValue (Multiply)               (None, 3)            0           dense_2[0][0]
                                                                 action_mask[0][0]
==================================================================================================
Total params: 676,915
Trainable params: 676,915
Non-trainable params: 0
__________________________________________________________________________________________________
state: epsiode, episode: 0, score: 0.0, global_step_count: 119, avg loss: 0.0, step: 119, memory length: 119
…
